data.pth (torch, 13866 bytes, 6 tensors)

l1.weight f4 [8, 202]
000000 58 77 00 3f 0d 37 5d 3c f3 9f 3c 3f 64 88 19 3f
       0.50182104 0.013501895 0.73681563 0.5997374
000010 58 dd d2 3c 54 36 9e bf 84 87 0c bf d4 6a 85 3f
       0.02574031 -1.236033 -0.5489428 1.0423226
000020 03 c7 19 3f a3 4e dd be 89 dd e4 3f 93 cf bb 3e
       0.6006929 -0.43224058 1.7880107 0.36681804
000030 78 0f 9e bd 10 09 1e 3d 26 3c 81 3f a7 5d b2 3f
       -0.07717794 0.03858286 1.0096481 1.393483
000040 a0 37 b8 3f 0c 84 b2 3e 58 89 45 3e d5 97 9a 3f
       1.4391975 0.3486637 0.19290674 1.2077585
000050 db 4f 50 bd 45 85 6d 3f 88 d1 68 3f 24 da e3 3e
       -0.050857406 0.9278148 0.9094472 0.44502366
000060 fd f4 44 3e 6f 01 4a be b1 7f 8c be 3f 34 a4 3f
       0.1923408 -0.1972711 -0.2744117 1.2828444
000070 ef 1e 3b 3f 5a 7f 15 3f 99 5f f7 3f 22 4e f8 3d
       0.73094076 0.5839745 1.9326049 0.12124278
000080 e4 2b 34 bf 35 86 a6 3f d7 d6 a6 3e db 32 75 be
       -0.7037947 1.3009707 0.32585785 -0.23945181
000090 40 3b a6 bd 0b fd e1 3e 8c 2b 07 3d 49 83 d7 be
       -0.0811677 0.4413837 0.033000514 -0.4209235
0000a0 4d 13 a4 3e dc 6a 56 3e 6c bd 52 be 55 a8 d5 3e
       0.32045975 0.20939201 -0.20580071 0.4172999
0000b0 ad 4e a6 bd 8e 6c d4 3e a5 9f 8f bc 41 59 3c 3f
       -0.08120475 0.4148907 -0.01753218 0.7357369
0000c0 60 52 40 3f d2 ca c8 3d 58 2f 57 3e 6f c1 e9 3e
       0.75125694 0.0980431 0.21014154 0.4565539
0000d0 bb db ad bf e4 5f d9 3e bf 82 88 3f 4d a2 a1 3e
       -1.3582681 0.4245597 1.06649 0.31569138
0000e0 04 87 96 3e f3 27 14 3f 86 8f 5a 3f 66 db 38 be
       0.29399884 0.5787346 0.8537525 -0.18052444
0000f0 35 38 d1 3e f9 3a 88 bf 52 5b 1b bd 23 87 05 3f
       0.40863195 -1.0642997 -0.037928887 0.5215933
000100 36 63 c8 3e e1 09 c9 3e 3d 4e 2c 3d 36 47 12 40
       0.39138192 0.3926535 0.0420668 2.2855964
000110 4f b7 53 3f 54 ab 6e bd 1c ef 8c 3f 97 22 66 be
       0.8270158 -0.05826886 1.101047 -0.22474132
000120 af 1d e0 3e d8 e3 f4 3f 98 de 8b 3e 35 89 1d bf
       0.43772647 1.9132032 0.27318263 -0.61537486
000130 53 fd ad 3d 4f 7f 1f 40 a1 d7 69 3f ad 9e 95 3c
       0.084955834 2.4921453 0.9134465 0.01826414
000140 c5 19 7e 3e 67 19 71 be 31 c4 a8 3f 5a b6 ed 3e
       0.24814518 -0.23544846 1.3184873 0.46428186
000150 35 f0 26 bf 9c 97 38 bf b5 ae b0 bd 67 ca 5b 3f
       -0.65210277 -0.7210634 -0.08627073 0.85855716
000160 a9 2c b2 bd 28 6b 2b be 1e a8 54 3f e3 84 7b 3f
       -0.086999245 -0.16740096 0.83069026 0.98249644
000170 af 1b 55 3f 00 50 11 40 97 2a 1c bf 88 df f0 3e
       0.83245367 2.2705078 -0.61002487 0.4704554
000180 64 1d 4f 3e 9a af bb bc f0 03 c1 3e 2b e7 37 3f
       0.20226055 -0.022910882 0.37698317 0.7183711
000190 ad f0 cc 3f f6 c1 0a c0 a3 86 9b 3f 9e a3 bd 3d
       1.6010948 -2.1680884 1.2150463 0.09259723
0001a0 16 23 8a 3d 54 f7 df 3e 27 11 05 40 03 7b 1c bf
       0.06744973 0.43743384 2.079172 -0.611252
0001b0 89 b9 f7 bc d7 c8 2a 3f 7f 4f 07 be d4 f7 8a bf
       -0.030239837 0.6671271 -0.13213919 -1.0856881
0001c0 ad e8 12 be 4b 48 c9 be c6 1a 0b 3e cd 85 4d be
       -0.14346571 -0.39312968 0.13584432 -0.20070572
0001d0 0d 9e b6 3f 34 3e c2 3f 41 1c af 3f d1 3f 9e bf
       1.4266983 1.5175233 1.3680497 -1.2363225
0001e0 8d 87 dd be 8c e5 b0 be e7 94 eb be 14 e4 97 3e
       -0.4326748 -0.3455013 -0.4601204 0.29666197
0001f0 42 d6 5c 3d a7 41 7c be 97 ae 91 bd e4 87 e9 3e
       0.05391527 -0.2463442 -0.071133785 0.4561149
000200 a8 99 8b 3d af 13 06 bf 69 e4 1e 3f ba b7 9c bc
       0.06816417 -0.52373785 0.62067276 -0.019130576
000210 72 75 19 3f 59 03 22 3d 08 1e 14 be 03 a9 7c be
       0.5994483 0.039553974 -0.14464581 -0.24673848
000220 81 ea 97 bf 5e 49 30 bf c2 1e a2 bd 36 4b 74 bf
       -1.186844 -0.6886195 -0.07916023 -0.9542726
000230 e3 bc 4d be d1 2c 8a 3e 24 6c 16 be c8 50 31 bf
       -0.20091586 0.26987317 -0.1468969 -0.6926389
000240 0c 63 fd 3e 8c 4a 99 be dc 4e 33 3b 70 92 8b 3f
       0.4948963 -0.29939687 0.0027360236 1.0904064
000250 7f 1d ca 3e 4d 6c 82 be df 5f 2c 3f ff b4 1a 3f
       0.3947563 -0.25473252 0.6733379 0.6043243
000260 ff b1 2b 3f 70 5c a1 bf 7a f8 92 3d 3f c2 c8 bd
       0.67068475 -1.2606335 0.071762994 -0.098026745
000270 cd be b4 be f4 24 f9 bc 1f 28 55 3e e6 df 81 3d
       -0.3530182 -0.030413128 0.20816086 0.06341533
000280 e9 4b 50 bf 21 ef b4 be 0e 3f 19 be e9 27 70 be
       -0.8136583 -0.3533869 -0.1496546 -0.23452725
000290 e2 a6 59 bf 89 ff 4f bf 20 8b fe 3e 1e 0d d2 3e
       -0.8502027 -0.8124929 0.4971552 0.41025633
0002a0 79 3f cb 3f 0d ff e3 bd 00 04 0e be a6 81 7a 3f
       1.5878745 -0.111326315 -0.13868713 0.9785408
0002b0 a8 ec 97 be 91 4b ea 3f f6 e7 71 bf 2b 17 0a bf
       -0.29672742 1.8304311 -0.9449457 -0.539416
0002c0 a5 ad cf 3c 9f 49 03 3f 58 82 8d be 33 9a eb bd
       0.025351355 0.5128421 -0.27638507 -0.115040205
0002d0 38 aa c9 3e 38 42 5c bf b0 23 99 3e ae b4 b1 bd
       0.3938768 -0.8603854 0.2991004 -0.0867704
0002e0 d3 29 cf 3f c8 23 0f 40 03 8c b6 be e5 98 4b 3e
       1.6184639 2.236559 -0.35653695 0.19882543
0002f0 f6 c1 15 bf 1d e4 41 3f 03 9e 7e 3f e0 97 95 3e
       -0.58499086 0.757387 0.99459857 0.29217434
000300 63 f0 7d be 67 76 9d 3e 54 e5 23 bf 78 cd ca be
       -0.24798732 0.30754396 -0.640218 -0.39609885
000310 6d 10 03 3f 44 db 80 be 68 77 c3 ba 69 ab 79 be
       0.5119694 -0.25167286 -0.0014912905 -0.24381794
000320 d7 b4 9e 3e f8 2a ec bd f4 2a bb 3e 62 41 61 3e
       0.30997345 -0.11531633 0.36556208 0.21997598
000330 41 16 57 3f 35 5f 09 3f 69 5b 1a 3f d9 d2 91 3e
       0.8401833 0.536609 0.6029573 0.28481176
000340 3f 54 97 3f 1b c3 e3 be 22 ec 00 3c 58 6c f1 3e
       1.1822585 -0.4448479 0.007868798 0.47152972
000350 0b 92 0d 40 a1 27 b0 3e 5b 5a d4 3f c6 38 8c 3f
       2.2120388 0.34405234 1.6590074 1.0954826
000360 91 c8 f9 be 87 33 15 40 16 dc 12 40 00 5d 5b 3e
       -0.48785833 2.33127 2.294683 0.21422195
000370 85 64 fd 3e 2a 82 d9 be 9e e8 22 be e1 c3 ae 3f
       0.49490753 -0.4248212 -0.15909049 1.3653527
000380 1e 8f a6 3f a2 db 4a 3f ac 3e b2 bf 1d 4a e6 be
       1.3012426 0.79241383 -1.3925376 -0.4497842
000390 f0 ba e5 be c0 91 a9 be b6 2c 94 3f fc 68 8c bf
       -0.44869184 -0.3311901 1.1576145 -1.0969539
0003a0 d0 05 ba bf a7 0f f4 3e 98 a1 35 3f 9b a1 2f 3f
       -1.4533024 0.47668192 0.709497 0.68605965
0003b0 fa c4 7b 3f 6b 8b 25 3e cf 05 7c 3f f8 3f 76 3f
       0.9834744 0.16166465 0.98446363 0.9619136
0003c0 ff e3 25 bf 14 84 08 40 c8 ee 24 3e e5 c2 bd 3e
       -0.6480102 2.1330614 0.16106713 0.37062755
0003d0 d9 de 8a be a7 e0 20 3f 99 67 a5 3e 14 19 a0 bf
       -0.27123144 0.6284279 0.323056 -1.2507653
0003e0 39 2a 97 3f cc 89 eb be 9b 51 9a 3f ec 33 47 3f
       1.180976 -0.46003568 1.2056154 0.778136
0003f0 97 3f fd 3e f9 69 05 3f 93 d2 07 40 35 f8 6a be
       0.49462578 0.52114826 2.1222274 -0.22946246

l1.bias f4 [8]
000000 cb 09 ce 3f 4d 36 11 40 b3 44 85 3f bf ef 1f 40
       1.6096739 2.2689393 1.041159 2.499008
000010 a6 29 25 40 b5 24 ff 3f 24 52 17 40 6a 03 e0 3f
       2.580667 1.9933077 2.3643885 1.7501042

l2.weight f4 [8, 8]
000000 77 1e d9 3d 89 ad a9 3d ad b8 3d bd 76 e1 89 be
       0.10601514 0.08285052 -0.0463187 -0.26929826
000010 64 2b ce be 5b 0f aa 3c fd 20 95 bd df 2f 69 3c
       -0.4026748 0.020759275 -0.07281683 0.014232605
000020 fe 5d 9e 3f 8b 6d 60 40 8b ab 0a 3f a8 19 96 bf
       1.2372434 3.506686 0.54168004 -1.172658
000030 ef cf 1a 3f ff b2 c6 3f 53 f0 d7 3f da 0a f3 bf
       0.6047353 1.5523375 1.6870216 -1.8987687
000040 0e d0 8b 3f 5c 6b 97 be 79 0e 07 c0 8b 6f 93 be
       1.0922868 -0.29574096 -2.1102583 -0.28796038
000050 85 2b 54 40 06 16 7b 40 9f 50 c5 3f 0b cf f7 3e
       3.3151562 3.9232192 1.5415229 0.4840015
000060 79 b7 78 bf 5a a7 54 40 0b a1 4c 40 c0 f4 a6 40
       -0.9715496 3.3227143 3.1973293 5.2173767
000070 30 c7 c4 3f c0 62 06 40 98 74 0b 40 18 34 88 3e
       1.5373287 2.0997772 2.1789913 0.26602244
000080 94 eb 77 40 cd 07 4d 40 1e 58 84 bf 80 45 17 3f
       3.8737535 3.2036011 -1.0339391 0.59090424
000090 17 5b 39 40 21 b0 01 c0 a1 53 40 bc 69 02 98 40
       2.8961847 -2.026375 -0.011738689 4.750294
0000a0 7a cc 90 40 f5 81 f8 be 18 d5 85 40 34 da 21 3f
       4.5249605 -0.4853665 4.1822624 0.63223577
0000b0 08 0e 29 bf b5 e8 9a 3f cb c7 82 40 a9 20 30 40
       -0.66037035 1.2102267 4.086889 2.7519934
0000c0 4b 00 50 3e fb 98 a6 be ab 77 be be 9c f7 97 be
       0.20312612 -0.3253859 -0.37200674 -0.29681098
0000d0 2b 5b 87 3c da 8b 09 3e 4e 46 c4 bd f8 c6 44 be
       0.016522964 0.13432255 -0.09583722 -0.19216526
0000e0 e7 38 85 bf 81 22 32 40 55 69 3e bf ea 7b c0 bf
       -1.040799 2.783356 -0.74379474 -1.5037816
0000f0 36 0b 12 40 a9 32 c0 be 2b 8a 42 40 fb b0 14 3e
       2.2819343 -0.3753865 3.039683 0.14520638

l2.bias f4 [8]
000000 24 84 54 be 54 d3 aa be ec fb c2 3f b9 5b e0 3f
       -0.20753533 -0.33364356 1.523313 1.7527992
000010 5b 14 b3 3f 32 47 0d 3e 0e 54 c1 be 30 41 4e 3e
       1.3990587 0.1379669 -0.3775944 0.20142055

l3.weight f4 [38, 8]
000000 de e1 80 3d 69 c4 72 be 04 97 5e bf 5e 72 8f 3e
       0.06293081 -0.23707737 -0.8694918 0.28016943
000010 6c f5 64 c0 17 5b 2b bf 2d c7 8f 3e cc 94 40 3c
       -3.5774794 -0.6693587 0.28081647 0.011754226
000020 d3 ab a3 be 58 b9 52 c0 69 4e a0 c0 6a 33 2d 3f
       -0.3196703 -3.2925625 -5.0095716 0.67656577
000030 d2 b5 94 3d 57 6a 21 bf 2c 17 ba bd ed d8 ee be
       0.07261242 -0.63052887 -0.09086451 -0.46649876
000040 cb 0e 95 be ea 23 9e bd 45 dc 53 c0 73 64 8e bf
       -0.2911285 -0.07721694 -3.3103192 -1.1124405
000050 30 f4 62 be 38 a4 88 be 63 03 20 be f2 dc 02 3e
       -0.22163463 -0.2668779 -0.15626292 0.12779596
000060 fe 4d 82 be a6 00 43 c0 9a 10 ba bd 92 85 1c c0
       -0.25450128 -3.0469146 -0.09085198 -2.4456525
000070 4f bd 58 3f 3a 02 62 3e 9f 75 59 be e1 12 20 c0
       0.8466386 0.22071162 -0.21236275 -2.5011523
000080 2e 52 86 3e 0e 59 65 c0 77 52 4a be 88 28 4f 3f
       0.26234573 -3.5835605 -0.1975802 0.8092122
000090 62 95 9e bf 5d f9 ec bf 81 89 29 3e 9c 8f 6f bf
       -1.2389338 -1.85136 0.1655636 -0.93578506
0000a0 b2 af 3b 3e 6b 39 d2 3e 13 c4 a1 3e 83 8e 8d bf
       0.18328741 0.4105943 0.31594905 -1.1059116
0000b0 ae 66 b2 bd e5 2d 6b c0 85 71 0c 3e 16 96 26 3f
       -0.08710991 -3.6746762 0.1371518 0.6507276
0000c0 7c 92 e1 bd d6 55 27 c0 fb e1 d7 be 8f f7 4a 3f
       -0.11014268 -2.614614 -0.42164597 0.79283994
0000d0 79 25 51 c0 ed 63 44 bd be 05 7c 3e 92 bb 30 c0
       -3.2679121 -0.04794686 0.24611565 -2.7614484
0000e0 b5 46 30 39 47 e2 c6 bf 14 20 6d bf 8b 09 b5 bf
       0.00016811008 -1.5537804 -0.9262707 -1.4143537
0000f0 92 47 a1 be 21 29 65 3e c2 f7 04 be a8 cc ad bf
       -0.31499916 0.2237897 -0.12985137 -1.3578081
000100 0a 21 b3 be 73 6f 75 3c d3 ad 88 be aa 95 84 bf
       -0.34986144 0.014980185 -0.26695117 -1.0358174
000110 b6 0e 2b c0 e6 73 54 3d b7 67 b8 bc 82 49 aa be
       -2.672773 0.051868342 -0.022510393 -0.33259207
000120 09 03 31 3b e4 87 a2 bf e9 a1 5d 3d de 7e 50 bf
       0.0027009866 -1.269772 0.054109488 -0.81443584
000130 20 a0 85 bf 6b eb 45 bf 10 e0 05 be 42 0f d0 be
       -1.0439491 -0.77312344 -0.13073754 -0.4063664
000140 0b 5c 69 3c e8 12 69 3e 7f 73 3f bf 6d 42 42 bf
       0.014243136 0.22761118 -0.7478561 -0.7588261
000150 cd f7 d8 bf 67 c2 84 bf aa 80 8a 3e 68 ba d1 3e
       -1.6950623 -1.0371827 0.27051288 0.4096253
000160 ed 37 42 3e 41 11 02 3f 1b 62 1a 3c 8f 17 f4 bf
       0.18966646 0.5080758 0.009422804 -1.906969
000170 96 b5 47 bf 4d 8d 8e bf ad 42 88 3e f6 18 95 3e
       -0.78011453 -1.1136872 0.2661337 0.29120606
000180 d0 e4 f5 bd f7 f0 08 3e f1 8e 34 bf e8 2b 0b c0
       -0.12006533 0.13373171 -0.7053061 -2.1745548
000190 5a e7 3d bf 7c cc da 3c 04 9a c0 be bc 65 b9 be
       -0.7418114 0.026708834 -0.37617505 -0.3621043
0001a0 54 72 3e be 63 0f 00 3e 0c fa f8 3e e6 70 38 c0
       -0.185983 0.1250587 0.4862827 -2.8818908
0001b0 d4 6c d3 3d d2 33 5c bf be dc 0b 3c 51 54 c6 be
       0.10323492 -0.8601657 0.008536516 -0.38736203
0001c0 ff 81 51 3e e9 90 1b c0 94 26 20 c0 d3 4b 2c 3e
       0.20459746 -2.4307196 -2.5023546 0.168258
0001d0 45 66 2a c0 e7 db 8f 3f 50 6d b0 bc 62 b3 07 c0
       -2.662492 1.1238984 -0.0215365 -2.1203237
0001e0 59 0c 68 3e 8c bf 68 c0 99 9b b0 bd 0c 4a 99 be
       0.2266096 -3.636691 -0.08623428 -0.29939306
0001f0 e2 81 2e be 63 bf 08 bf 86 23 43 3e b0 28 51 c0
       -0.17041734 -0.5341703 0.1905652 -3.2681084
000200 b7 ab 85 3c de 9d 8b c0 e4 58 ed bf 8b bf 78 bf
       0.016317232 -4.363021 -1.8542752 -0.9716727
000210 f3 7a 92 3f a4 67 87 bf cd bb a7 3e df 42 eb 3e
       1.1443771 -1.0578504 0.32760468 0.45949456
000220 7a 7b 9e be e2 c0 fd 3c cb 84 10 c0 5d 00 5c bf
       -0.3095358 0.030975763 -2.258105 -0.85938054
000230 36 a9 cf bf 4f 29 f6 3e 78 33 3c be c9 f5 95 bf
       -1.6223514 0.4807839 -0.18379009 -1.1715633
000240 99 f6 21 bc c3 15 6d bf 7a 27 a7 bf 92 18 21 c0
       -0.009885454 -0.9261133 -1.3058922 -2.5171247
000250 97 83 1e 3f 97 39 d0 be 61 1f a4 3e 67 0f 0c 3f
       0.6191954 -0.40668938 0.3205519 0.54711
000260 cd 52 74 3e 66 78 43 c0 fa ff 92 bf e0 ab fe be
       0.23859711 -3.0542235 -1.1484368 -0.49740505
000270 12 0f 44 bf 7d 60 44 3f ea 59 2d 3e 66 34 78 c0
       -0.76585495 0.7670973 0.1692883 -3.8781981
000280 fa 28 9f 3e 9d c7 ef bf 39 e8 34 3f 3a e2 89 be
       0.3108595 -1.8732792 0.70666844 -0.2693041
000290 b8 3f c4 bc bd 91 5d c0 5c 36 90 3e 81 f3 be bd
       -0.023956165 -3.4620202 0.28166473 -0.093237884
0002a0 33 83 63 be 9a 14 77 c0 4a d2 12 3f 38 84 f0 bf
       -0.22218017 -3.8606324 0.57352126 -1.879035
0002b0 58 10 26 3e 48 8a 1b bf d9 62 50 be b0 8c a2 3e
       0.16217172 -0.60757875 -0.20350207 0.3174796
0002c0 cb 36 8f be 4b 48 64 c0 83 04 18 c0 ae a2 d9 bf
       -0.2797149 -3.5669124 -2.3752754 -1.7002771
0002d0 74 3d 98 3e d0 20 81 3f 0a 70 6a 3e b6 f1 8c bf
       0.29734385 1.0088139 0.22894302 -1.1011264
0002e0 c9 96 34 bd 9d 64 eb bd e3 b7 76 c0 40 c5 24 3f
       -0.044089112 -0.114938 -3.8549736 0.6436348
0002f0 6f dd 13 c0 8e 4b a9 3d 62 c7 af bd ca c4 be bf
       -2.3103902 0.08266364 -0.08582951 -1.4903805
000300 2b 2c 88 3e c1 97 4f c0 14 79 25 bf 0b 8e 83 be
       0.26596197 -3.2436373 -0.64637876 -0.25694308
000310 a9 5a f5 bf ba 0f 5b 3e 43 74 d2 bb 94 05 db be
       -1.9168292 0.21392718 -0.006422551 -0.42777693
000320 71 94 e2 bd a0 e1 3f c0 97 c7 25 c0 29 d7 9d be
       -0.11063469 -2.998146 -2.590307 -0.30828217
000330 17 05 9a be 6c f5 93 be 1a 1f 70 3e 1d d5 0a 3f
       -0.30082008 -0.2889818 0.23449364 0.54231435
000340 2b 4b 29 bd ea 12 76 be 5c 0c dc bf 72 2a 70 3e
       -0.04133145 -0.24030653 -1.7191272 0.23453692
000350 6e 92 92 bf 3c 73 0d c0 88 47 61 bd e0 11 b9 3e
       -1.1450937 -2.2101583 -0.05499986 0.3614645
000360 27 ff f4 3d 5e e1 86 3e 74 35 95 bf 8e af 5b bf
       0.11962729 0.26343817 -1.1656938 -0.8581475
000370 62 f9 4e 3e cc 02 06 c0 91 09 a9 bd 15 73 b7 be
       0.2021232 -2.0939207 -0.08253778 -0.35829988
000380 08 2d 87 be f5 d5 39 bf 23 45 76 c0 3f e6 28 3f
       -0.26401544 -0.725921 -3.8479698 0.6597633
000390 eb 3d 44 3f 78 24 71 c0 0c be 2a 3e ed 25 1b 3e
       0.7665698 -3.7678509 0.1667406 0.15151186
0003a0 6c b0 8b 3e 5f 14 5f 3f a8 92 22 3e b8 05 0d bf
       0.27283037 0.8714046 0.15876257 -0.5508685
0003b0 af 2f 50 c0 8d 73 d1 bf 04 f4 2b bd b5 ac 22 3f
       -3.2529104 -1.6363388 -0.04198076 0.6354478
0003c0 9c 87 2a be 15 20 a4 be 93 e4 a4 3f b2 6c 9a bf
       -0.16653293 -0.32055727 1.2882255 -1.2064421
0003d0 dc c0 bd bf 36 c6 00 c0 06 ce c0 3d 89 a4 08 3f
       -1.4824481 -2.0120978 0.09414296 0.5337606
0003e0 ea 1b eb bc ac 83 49 c0 83 f0 81 c0 ad da 9e 3e
       -0.028699834 -3.1486616 -4.0606093 0.3102621
0003f0 0a 3e 12 be a2 2c cc 3e 50 4f cc bd e5 29 35 c0
       -0.14281479 0.39877802 -0.09976065 -2.830682

l3.bias f4 [38]
000000 c2 37 6a bc c0 a7 61 be a3 b9 2a be 96 ba de 3e
       -0.01429552 -0.22036648 -0.16672377 0.4350173
000010 88 74 bd 3e 64 e6 3c bf fb f1 09 3f d8 4f 31 bf
       0.3700297 -0.7378905 0.5388486 -0.69262457
000020 db 89 05 bf 1a 20 23 be a5 e4 b1 bf 55 27 60 bf
       -0.52163476 -0.15930215 -1.3897902 -0.87560016
000030 f0 30 b7 be 65 7a 95 be 50 26 c7 bc a9 61 66 bd
       -0.35779524 -0.29194942 -0.024310261 -0.05624548
000040 a9 b6 e9 3e 26 60 57 be 3a f1 45 bf 74 32 c6 3e
       0.4564717 -0.21032771 -0.7732121 0.38710368
000050 43 83 fa 3e 21 c3 c0 3e 27 4b cc be 90 b7 92 3d
       0.4892827 0.37648872 -0.39901087 0.07163918
000060 de c6 6e be ae 82 4c bc 0e bc 2c be 99 66 9f bd
       -0.2331805 -0.012482328 -0.16868612 -0.07783241
000070 f6 41 6f 3f ca 4e 9e be af a1 bf 3e fa fa a2 be
       0.93460023 -0.30919486 0.37428042 -0.31832105
000080 3a 9b 4e be 27 3a f2 be 21 a8 4b 3f 47 b4 b4 3e
       -0.20176402 -0.47309992 0.7955342 0.3529379
000090 a1 7b 05 3e 63 23 1d 3e
       0.13035442 0.1534553
